Model: "cnn_topomap_classification_model_9"
_________________________________________________________________
Layer (type)                 Output Shape              Param #   
=================================================================
conv2d (Conv2D)              (None, 224, 224, 32)      2432      
_________________________________________________________________
max_pooling2d (MaxPooling2D) (None, 112, 112, 32)      0         
_________________________________________________________________
conv2d_1 (Conv2D)            (None, 112, 112, 64)      51264     
_________________________________________________________________
max_pooling2d_1 (MaxPooling2 (None, 56, 56, 64)        0         
_________________________________________________________________
conv2d_2 (Conv2D)            (None, 56, 56, 128)       204928    
_________________________________________________________________
max_pooling2d_2 (MaxPooling2 (None, 28, 28, 128)       0         
_________________________________________________________________
conv2d_3 (Conv2D)            (None, 28, 28, 256)       819456    
_________________________________________________________________
max_pooling2d_3 (MaxPooling2 (None, 14, 14, 256)       0         
_________________________________________________________________
conv2d_4 (Conv2D)            (None, 14, 14, 512)       3277312   
_________________________________________________________________
max_pooling2d_4 (MaxPooling2 (None, 7, 7, 512)         0         
_________________________________________________________________
dropout (Dropout)            (None, 7, 7, 512)         0         
_________________________________________________________________
flatten (Flatten)            (None, 25088)             0         
_________________________________________________________________
dense (Dense)                (None, 512)               12845568  
_________________________________________________________________
dropout_1 (Dropout)          (None, 512)               0         
_________________________________________________________________
dense_1 (Dense)              (None, 512)               262656    
_________________________________________________________________
dropout_2 (Dropout)          (None, 512)               0         
_________________________________________________________________
dense_2 (Dense)              (None, 3)                 1539      
=================================================================
Total params: 17,465,155
Trainable params: 17,465,155
Non-trainable params: 0
_________________________________________________________________
loss:0.4127013917724539
accuracy:0.9247618913650513
trained using 100 epochs
              precision    recall  f1-score      support
0              0.897867  0.941905  0.919359  2100.000000
…
