Model: "sequential"
_________________________________________________________________
Layer (type)                 Output Shape              Param #   
=================================================================
conv2d (Conv2D)              (None, 222, 222, 32)      896       
_________________________________________________________________
conv2d_1 (Conv2D)            (None, 220, 220, 32)      9248      
_________________________________________________________________
max_pooling2d (MaxPooling2D) (None, 110, 110, 32)      0         
_________________________________________________________________
dropout (Dropout)            (None, 110, 110, 32)      0         
_________________________________________________________________
conv2d_2 (Conv2D)            (None, 108, 108, 64)      18496     
_________________________________________________________________
conv2d_3 (Conv2D)            (None, 106, 106, 64)      36928     
_________________________________________________________________
max_pooling2d_1 (MaxPooling2 (None, 53, 53, 64)        0         
_________________________________________________________________
dropout_1 (Dropout)          (None, 53, 53, 64)        0         
_________________________________________________________________
conv2d_4 (Conv2D)            (None, 51, 51, 128)       73856     
_________________________________________________________________
conv2d_5 (Conv2D)            (None, 49, 49, 128)       147584    
_________________________________________________________________
max_pooling2d_2 (MaxPooling2 (None, 24, 24, 128)       0         
_________________________________________________________________
dropout_2 (Dropout)          (None, 24, 24, 128)       0         
_________________________________________________________________
conv2d_6 (Conv2D)            (None, 22, 22, 256)       295168    
_________________________________________________________________
conv2d_7 (Conv2D)            (None, 20, 20, 256)       590080    
_________________________________________________________________
max_pooling2d_3 (MaxPooling2 (None, 10, 10, 256)       0         
_________________________________________________________________
dropout_3 (Dropout)          (None, 10, 10, 256)       0         
_________________________________________________________________
flatten (Flatten)            (None, 25600)             0         
_________________________________________________________________
dense (Dense)                (None, 256)               6553856   
_________________________________________________________________
dropout_4 (Dropout)          (None, 256)               0         
_________________________________________________________________
dense_1 (Dense)              (None, 128)               32896     
_________________________________________________________________
dropout_5 (Dropout)          (None, 128)               0         
_________________________________________________________________
dense_2 (Dense)              (None, 3)                 387       
=================================================================
Total params: 7,759,395
Trainable params: 7,759,395
Non-trainable params: 0
_________________________________________________________________
loss:0.2862669879756868
accuracy:0.9223809242248535
trained using 100 epochs
              precision    recall  f1-score      support
0              0.907642  0.921905  0.914718  2100.000000
…
