Model: "cnn_topomap_classification_model_7"
_________________________________________________________________
Layer (type)                 Output Shape              Param #   
=================================================================
conv2d (Conv2D)              (None, 224, 224, 32)      2432      
_________________________________________________________________
max_pooling2d (MaxPooling2D) (None, 112, 112, 32)      0         
_________________________________________________________________
conv2d_1 (Conv2D)            (None, 112, 112, 64)      51264     
_________________________________________________________________
max_pooling2d_1 (MaxPooling2 (None, 56, 56, 64)        0         
_________________________________________________________________
conv2d_2 (Conv2D)            (None, 56, 56, 128)       204928    
_________________________________________________________________
max_pooling2d_2 (MaxPooling2 (None, 28, 28, 128)       0         
_________________________________________________________________
conv2d_3 (Conv2D)            (None, 28, 28, 256)       819456    
_________________________________________________________________
max_pooling2d_3 (MaxPooling2 (None, 14, 14, 256)       0         
_________________________________________________________________
dropout (Dropout)            (None, 14, 14, 256)       0         
_________________________________________________________________
flatten (Flatten)            (None, 50176)             0         
_________________________________________________________________
dense (Dense)                (None, 512)               25690624  
_________________________________________________________________
dropout_1 (Dropout)          (None, 512)               0         
_________________________________________________________________
dense_1 (Dense)              (None, 512)               262656    
_________________________________________________________________
dropout_2 (Dropout)          (None, 512)               0         
_________________________________________________________________
dense_2 (Dense)              (None, 3)                 1539      
=================================================================
Total params: 27,032,899
Trainable params: 27,032,899
Non-trainable params: 0
_________________________________________________________________
loss:0.2581900002790251
accuracy:0.9363492131233215
trained using 100 epochs
              precision    recall  f1-score      support
0              0.929791  0.933333  0.931559  2100.000000
…
