Model: "sequential"
_________________________________________________________________
Layer (type)                 Output Shape              Param #   
=================================================================
conv2d (Conv2D)              (None, 222, 222, 32)      896       
_________________________________________________________________
conv2d_1 (Conv2D)            (None, 220, 220, 32)      9248      
_________________________________________________________________
max_pooling2d (MaxPooling2D) (None, 110, 110, 32)      0         
_________________________________________________________________
dropout (Dropout)            (None, 110, 110, 32)      0         
_________________________________________________________________
conv2d_2 (Conv2D)            (None, 108, 108, 64)      18496     
_________________________________________________________________
conv2d_3 (Conv2D)            (None, 106, 106, 64)      36928     
_________________________________________________________________
max_pooling2d_1 (MaxPooling2 (None, 53, 53, 64)        0         
_________________________________________________________________
dropout_1 (Dropout)          (None, 53, 53, 64)        0         
_________________________________________________________________
conv2d_4 (Conv2D)            (None, 51, 51, 128)       73856     
_________________________________________________________________
conv2d_5 (Conv2D)            (None, 49, 49, 128)       147584    
_________________________________________________________________
max_pooling2d_2 (MaxPooling2 (None, 24, 24, 128)       0         
_________________________________________________________________
dropout_2 (Dropout)          (None, 24, 24, 128)       0         
_________________________________________________________________
flatten (Flatten)            (None, 73728)             0         
_________________________________________________________________
dense (Dense)                (None, 256)               18874624  
_________________________________________________________________
dropout_3 (Dropout)          (None, 256)               0         
_________________________________________________________________
dense_1 (Dense)              (None, 128)               32896     
_________________________________________________________________
dropout_4 (Dropout)          (None, 128)               0         
_________________________________________________________________
dense_2 (Dense)              (None, 3)                 387       
=================================================================
Total params: 19,194,915
Trainable params: 19,194,915
Non-trainable params: 0
_________________________________________________________________
loss:0.30602173901221247
accuracy:0.9274603128433228
trained using 100 epochs
              precision    recall  f1-score     support
0              0.917963  0.927143  0.922530  2100.00000
…
